50_model.pth (torch, 32967 bytes, 18 tensors)

conv1.weight f4 [4, 3, 3, 3]
000000 1f 6f 93 3e 83 88 9c 3e 65 bd aa 3e 4b ab 39 3d
       0.28795716 0.305729 0.33347622 0.045329373
000010 c6 9a 84 3e 95 b1 57 3e be 31 40 3d 02 1c 77 3e
       0.25899333 0.21063836 0.046922438 0.24131778
000020 66 41 88 3d 2d 2c 4f be c2 bd 70 be 45 d7 a0 3d
       0.06653099 -0.20231695 -0.23509887 0.078535594
000030 f3 97 4e 3c 7c f6 84 be 4b 42 9a bd c7 25 9a bd
       0.01260947 -0.25969303 -0.07532176 -0.07526737
000040 ba 32 01 be f6 f9 b2 bd 00 40 ae bd 13 5d a1 3b
       -0.12617007 -0.087390825 -0.08508301 0.0049244254
000050 ee f3 46 be 22 fa 20 be bb 6e 09 bb 6b 40 42 ba
       -0.1942899 -0.15720418 -0.0020970542 -0.0007410112
000060 2f 16 23 3e 87 59 d1 bd 0f 57 8b bd 79 ad 8b 3e
       0.15926431 -0.10222154 -0.068037145 0.27280787
000070 87 6a 99 3e 41 37 b3 3d 43 d4 70 3e 3d 74 dc 3d
       0.29964086 0.08750773 0.23518471 0.10764358
000080 0e c4 b9 bc a4 dc c9 3e 8a 39 08 3d b8 1d d6 3c
       -0.022676494 0.39426148 0.033258 0.026137218
000090 f2 2e ec be 44 9b 6c be 80 cb da bd 34 43 a8 bd
       -0.46129566 -0.23106104 -0.10683346 -0.08215943
0000a0 0a 1d 2c be b7 f9 62 be 07 88 0c be f1 e9 6a be
       -0.16807953 -0.22165571 -0.13723765 -0.22940804
0000b0 a2 0d 8d be 1e 69 3d 3d 28 e0 3a 3d 65 a6 f5 3c
       -0.27549464 0.046242826 0.04562393 0.02998657
0000c0 d0 22 e7 3d 30 01 9d 3e 82 cc 56 3e d0 34 19 3d
       0.11285937 0.30664968 0.20976451 0.03740388
0000d0 c2 c5 99 3e 74 4b c8 bd a2 38 8e 3e 93 d6 96 3d
       0.3003369 -0.097800165 0.27777582 0.073651455
0000e0 67 8e ab 3e cd 5f 03 3e dd 34 85 3e 41 82 90 3c
       0.33507082 0.12829514 0.26016894 0.017640235
0000f0 1f 16 10 be b2 09 cb 3d 1c 31 f2 3c 97 26 4b 3e
       -0.14070939 0.099139586 0.029564433 0.1983894
000100 5a be ca 3d 7e 7c 2a 3e 61 8e c2 3d 5a b1 5d 3e
       0.09899588 0.16649053 0.09499813 0.21649686
000110 9f 09 27 3e e9 5f 59 bd db ed ee bc ec cd 01 3e
       0.16312264 -0.053069983 -0.029166153 0.12676209
000120 f0 67 1f be e6 fb fe 3d f3 46 70 3d 43 1a 07 be
       -0.15566993 0.124503896 0.058661412 -0.13193612
000130 de 53 14 3e 08 63 2d 3d 84 8f 7c be 42 54 17 3c
       0.14485118 0.04233077 -0.24664122 0.009236397
000140 78 a0 b3 bd 82 d0 1a 3e 29 d7 44 be 13 58 8d be
       -0.08770841 0.15118602 -0.19222702 -0.27606258
000150 3d 6c 94 3e 24 00 8c bd b4 fe df bd 03 23 b3 3c
       0.2898883 -0.06835964 -0.10937253 0.02186728
000160 08 b6 14 3b a8 63 99 3e 15 7d 11 3e 85 55 cc bd
       0.0022691507 0.29958844 0.14207871 -0.09977249
000170 03 8f 97 be 48 d6 40 3e 9d b6 ac bd 3e 36 19 3e
       -0.29601297 0.18831742 -0.08433268 0.14962098
000180 ee 33 1c be 96 aa 65 3d 2b a8 ca 3d 85 45 b4 3c
       -0.15254185 0.056070887 0.09895357 0.022005806
000190 d0 84 cc be 1c 8a 29 be cc d1 44 3e e8 77 73 be
       -0.39945078 -0.16556591 0.19220656 -0.2377621
0001a0 a1 4f 00 be 4d ff 38 bd 55 f3 11 3e 8a 7e b8 3e
       -0.12530376 -0.04516535 0.1425298 0.36034042

conv2.weight f4 [8, 4, 3, 3]
000000 a7 bf 8c bc 42 6c 90 bc 57 b6 8a bc 9d 8e 94 bc
       -0.01718123 -0.017629746 -0.01693265 -0.01813441
000010 78 84 92 bc 42 03 8c bc 9d 78 86 bc 42 99 85 bc
       -0.017885432 -0.017091397 -0.016414935 -0.01630843
000020 4a 43 84 bc ef 73 98 bc d7 68 97 bc 59 9d 97 bc
       -0.016145367 -0.018609969 -0.018482609 -0.018507646
000030 83 ed 9c bc 60 ef 95 bc b7 b4 93 bc a1 f2 8f bc
       -0.019156223 -0.01830262 -0.018030507 -0.01757175
000040 a9 1c 88 bc 34 ca 93 bc 0c cc ea bc ac 9b f0 bc
       -0.016615229 -0.018040754 -0.02866175 -0.029371105
000050 dd f0 e6 bc a9 20 ed bc 02 ba eb bc 8b 4d e2 bc
       -0.028191024 -0.028946238 -0.028775219 -0.027624866
000060 cd 86 cf bc 11 62 d2 bc 81 f0 d5 bc 23 62 00 00
       -0.025332833 -0.025681527 -0.026115658 3.5205e-41
000070 e9 1d 00 80 7a 38 00 00 59 32 00 80 e0 2f 00 80
       -1.073e-41 2.026e-41 -1.8061e-41 -1.7174e-41
000080 65 dc 70 83 27 14 00 80 6c 93 00 00 e8 a4 00 80
       -7.078266e-37 -7.229e-42 5.2885e-41 -5.9157e-41
000090 67 b8 ae ba 3b 2b dc 3d 86 1f c3 3d 10 7a bb bc
       -0.0013330103 0.10750433 0.09527497 -0.022885352
0000a0 7e 2f fb 3d 79 28 97 3e 08 b9 e0 3d 92 0f c7 3d
       0.12264918 0.29523066 0.10972792 0.09719767
0000b0 29 9a 36 3e ce af 52 bd b8 cc 1a be 5c 98 ee bd
       0.17832245 -0.05143719 -0.15117157 -0.11650154
0000c0 36 53 ba bd 3d dd 60 3d e2 0f 7c 3c 99 38 66 3d
       -0.090979025 0.05489849 0.015384646 0.05620632
0000d0 f6 db a3 3d e1 2a 5f bd 5f 99 44 bd 50 b2 5f bd
       0.080009386 -0.054484252 -0.04799783 -0.05461341
0000e0 b5 f0 91 3d 18 1c d1 bd 14 90 ed bc 39 dd be bc
       0.07125989 -0.102104366 -0.028999366 -0.023298847
0000f0 d0 a0 d5 bd 92 90 72 39 e2 32 75 3d bf 20 90 3c
       -0.10431063 0.00023132775 0.05986298 0.01759374
000100 98 02 f7 3d 68 89 2a 3e 1d 1d f1 bc a1 15 09 3e
       0.120610416 0.16653979 -0.029432828 0.13387157
000110 fa 82 45 3e 29 da 3b be 9a 23 32 3d 8d 48 e9 3d
       0.19288245 -0.1834494 0.043490984 0.11390791
000120 8b 10 30 be bc 00 7e be 92 c2 37 be 6b e9 bb ba
       -0.1719381 -0.24804968 -0.17945316 -0.0014336532
000130 32 ad 19 3d 10 f9 3c 3d 2b 6e 9a 3e 68 d6 8f 3e
       0.037518688 0.046135962 0.30162176 0.28093266
000140 09 09 12 3e 3d b4 40 be b5 ea 25 be e5 6d fb bd
       0.14261259 -0.18818755 -0.16202815 -0.1227682
000150 b4 5a 85 3d cb 9a 31 be 72 ad 1c b8 77 70 38 3e
       0.06511441 -0.17344205 -3.7354832e-05 0.18011652
000160 d2 62 b7 3d 2f f4 ca 3d c9 55 40 be 43 84 bb bd
       0.08954395 0.099098556 -0.18782724 -0.09156086
000170 9b bb c8 bd 5e 61 9a 3d cf 25 24 bd fb 5d 96 3b
       -0.09801408 0.075381026 -0.04007512 0.00458884
000180 0e e1 fe 3d 3a d0 16 3e f2 c0 aa 3d 68 78 83 bd
       0.124452695 0.1472787 0.08337583 -0.0641945
000190 16 22 37 bd dd 68 28 be 09 5e 77 3e dd 5a 72 3e
       -0.04471024 -0.16446252 0.24156965 0.23667474
0001a0 49 15 f2 3d 77 6e ef 3e 56 f8 d3 3e cb ef 97 3e
       0.11820466 0.46763965 0.41400403 0.29675135
0001b0 5b 40 a9 3d 1e 44 01 3e fe 0d 1d be c4 72 32 3e
       0.08264228 0.12623641 -0.15337369 0.17426592
0001c0 b5 80 87 3d 89 84 47 be 32 73 56 bb 42 a0 fd bd
       0.06616346 -0.19484152 -0.003272247 -0.123840824
0001d0 ca 95 49 be d0 35 09 3e c3 b4 3b 3e ba 20 ea 3d
       -0.19686046 0.13399434 0.18330674 0.11432023
0001e0 77 fc 65 3e fd 2c 25 3e ab 8d c3 3b 6d c1 97 bd
       0.22459589 0.16130443 0.005967816 -0.0740994
0001f0 c3 6b 87 be 4e c5 3c be 81 b6 51 3e 78 0e 0c 3c
       -0.26449403 -0.18434641 0.20479776 0.0085483715
000200 47 b5 1f be 58 86 95 3e 50 52 08 3e 9d 01 68 be
       -0.15596496 0.2920406 0.1331265 -0.22656865
000210 eb a4 9a bd 4d 75 83 bd 18 e2 2e be dd e5 d1 3e
       -0.07550987 -0.06418858 -0.17078435 0.40995684
000220 6c c9 67 3e 65 ee 91 3c b6 24 7d 3e b2 87 a3 3c
       0.2263543 0.01781387 0.24721035 0.019962166
000230 c3 b2 a2 bd 2e f2 97 3d 55 37 3d be 0e 4d 9e be
       -0.07944252 0.07419239 -0.18478139 -0.30918163
000240 c0 d1 0b 3e 79 ba e1 3b 20 84 33 3c ff 60 a9 3d
       0.13654232 0.0068886844 0.010956794 0.08270454
000250 7e 47 20 3d 7d 06 06 3e 33 cf 9b 3d f0 25 7a 3d
       0.03913068 0.13088413 0.076078795 0.061071336
000260 e5 45 83 3c cd 2b f4 bd ef a2 1a be 60 75 9f bd
       0.01602454 -0.11922417 -0.15101217 -0.077860594
000270 56 65 f1 bd c6 03 cd bd ad a1 7b bb bc dd 35 be
       -0.117869064 -0.10010485 -0.0038395927 -0.17760366
000280 d8 7c 67 bd 49 be 83 3d 15 18 24 3e cb ea 1d 3e
       -0.056515545 0.064327784 0.16024812 0.15421598
000290 12 e7 3f bd 3d 7a 96 3b 79 2b c6 3d 4d 80 c7 3d
       -0.046851225 0.0045922087 0.096762605 0.09741268
0002a0 fd 11 8b 3d 47 b7 68 3d aa ed 07 bc b9 12 08 3e
       0.0679054 0.056815412 -0.00829641 0.13288392
0002b0 3b 7a 1e 3e 85 a4 08 bd 09 13 3d 3e 58 d1 20 3e
       0.15476315 -0.033360023 0.18464293 0.15704858
0002c0 42 31 86 bd 6d 85 27 3d 45 3c 3d 3c dc 35 76 bc
       -0.06552364 0.04089873 0.011550014 -0.0150274895
0002d0 de f3 d2 bd fd eb 3d be d0 f7 18 be 26 5c 1f be
       -0.1030042 -0.18547054 -0.14938283 -0.15562496
0002e0 6d d7 90 be f5 ba 2e be f8 5b 45 3d 9a 32 da 3b
       -0.28289357 -0.17063506 0.04818341 0.006658864
0002f0 76 c2 a5 bd 56 ef b7 bc 6e f2 a7 3d b3 5b 10 3d
       -0.08093731 -0.022452991 0.08200537 0.0352437
000300 40 a9 4c 3d 4c 05 4b bd 12 68 29 bd d8 fb 53 3e
       0.049966097 -0.0495656 -0.041359015 0.2070154
000310 42 8f 3c 3e 07 df 3b 3e 8e 3b a4 bc cf a3 0f 3e
       0.18414024 0.18346797 -0.02004793 0.14027332
000320 f0 c5 89 3d d8 fb a7 3b 79 11 1e 3e b9 21 44 bb
       0.06727207 0.0051264577 0.15436353 -0.0029927327
000330 df 0a da 3d 69 b9 a1 3d 7f bb de bc 64 a3 5c be
       0.10646605 0.07896692 -0.027189014 -0.21546704
000340 68 39 56 bd 47 40 d6 bc 97 e5 c1 be 46 58 1f be
       -0.05230084 -0.026153697 -0.37870476 -0.15561017
000350 2c c7 3b be 49 f1 38 be f0 5b 24 be 57 3e 19 be
       -0.18337697 -0.18060793 -0.16050696 -0.14965187
000360 67 1c 82 be 52 6b 8d be 6d 00 e4 be 5b 17 90 be
       -0.25412294 -0.2762094 -0.44531575 -0.2814282
000370 4e 88 3b be 8b 56 db be 0a 05 95 be 70 4d 71 be
       -0.18313715 -0.42839465 -0.29105407 -0.23564696
000380 ba e4 f8 be 1f 23 3d be bc a1 7c bd 15 7c ee bd
       -0.48612005 -0.18470429 -0.06167768 -0.116447605
000390 25 20 1e 3b 86 be 1e be fa d2 53 be 5c 5d 39 be
       0.0024128046 -0.15502366 -0.2068595 -0.1810202
0003a0 cd 55 ab be d8 c6 80 be 98 af 96 3d d1 a8 3d 3e
       -0.33463898 -0.25151706 0.073577106 0.1852143
0003b0 bf 8e 28 3e a9 70 27 3e c0 b9 4c 3e 54 56 5e 3e
       0.16460703 0.1635157 0.19992733 0.21712619
0003c0 0f 03 55 3e 8f 98 2f 3e fc 0d c8 3d d7 1f 9e bc
       0.20801948 0.1714804 0.09768292 -0.019302292
0003d0 6a b0 ac 3d 70 a9 8b 3e a1 d9 b7 3e d4 8a e5 3e
       0.08432086 0.27277708 0.35908225 0.4483248
0003e0 ef 4a 9b 3e e9 86 d5 3e 6b 06 13 3f bc b0 49 3e
       0.30330607 0.4170449 0.5743167 0.19696325
0003f0 15 ed ce 3c 0e 7a 1b 3e 2c b4 6a 3e 47 ce 27 3d
       0.025259534 0.15183279 0.22920293 0.040968206

conv3.weight f4 [8, 8, 3, 3]
000000 34 e5 00 00 e7 19 00 80 30 15 00 00 f4 d8 00 80
       8.2223e-41 -9.292e-42 7.6e-42 -7.7828e-41
000010 5d ce 01 80 b0 38 01 00 26 39 00 80 46 45 00 00
       -1.65865e-40 1.12171e-40 -2.0501e-41 2.485e-41
000020 d5 1e 01 00 0b ce 00 00 fc fb 00 80 f7 8c 00 80
       1.02896e-40 7.3914e-41 -9.0395e-41 -5.0569e-41
000030 5e 4d 00 80 c7 90 00 80 36 1d 00 00 ba 90 00 00
       -2.7754e-41 -5.1936e-41 1.0479e-41 5.1918e-41
000040 37 7a 00 00 f1 f5 00 00 8d d6 3a 97 90 77 18 97
       4.3842e-41 8.8227e-41 -6.0370643e-25 -4.926476e-25
000050 07 4b 9a 96 1f ac 3a 98 a6 6d ae 96 80 74 c8 96
       -2.492739e-25 -2.4126835e-24 -2.8180414e-25 -3.2385265e-25
000060 00 0e 06 9a 93 39 7c 98 e1 6a 9e 97 98 df 50 80
       -2.772186e-23 -3.2599304e-24 -1.0237491e-24 -7.42705e-39
000070 53 ba 0d 86 02 59 8b 82 ab 22 00 00 94 f8 02 00
       -2.6656042e-35 -2.0475302e-37 1.2437e-41 2.72844e-40
000080 91 09 9b 83 6a 1c 86 88 39 10 80 8b 14 ea 81 88
       -9.112278e-37 -8.071512e-34 -4.9328216e-32 -7.818937e-34
000090 6a aa 00 80 ad 74 00 80 59 2e 00 80 58 97 00 00
       -6.1133e-41 -4.1855e-41 -1.6626e-41 5.4292e-41
0000a0 9f 95 00 80 be 34 00 80 1d 62 00 00 79 7e 00 00
       -5.3674e-41 -1.892e-41 3.5196e-41 4.537e-41
0000b0 1a 57 00 00 9a 8d 9d 92 90 ea 83 90 7a 24 80 8d
       3.1246e-41 -9.943e-28 -5.203179e-29 -7.89739e-31
0000c0 da c5 95 92 f8 df a9 90 51 bf 1b 8c a8 f7 5d 91
       -9.451996e-28 -6.7003825e-29 -1.1998338e-31 -1.7510141e-28
0000d0 88 33 98 8d 96 03 9e 8a 0e b6 00 80 60 17 00 00
       -9.380129e-31 -1.5216195e-32 -6.5309e-41 8.385e-42
0000e0 ad 32 00 80 f2 84 00 80 7c af 00 00 7c 67 00 80
       -1.8179e-41 -4.7692e-41 6.2952e-41 -3.7123e-41
0000f0 9e 4b 00 00 13 4d 00 80 6c 5e 00 00 e8 7b 00 00
       2.7126e-41 -2.7649e-41 3.3872e-41 4.4449e-41
000100 8a 4e 00 80 7c 1c 00 80 db 19 00 00 99 a7 00 80
       -2.8175e-41 -1.0218e-41 9.275e-42 -6.0123e-41
000110 47 32 00 00 87 30 00 80 82 2b 00 80 bb 23 00 80
       1.8036e-41 -1.7408e-41 -1.5608e-41 -1.2818e-41
000120 49 cf 58 38 8a a6 3e 38 39 8c 57 38 c5 9b a7 36
       5.1691462e-05 4.545463e-05 5.1390587e-05 4.995122e-06
000130 20 7d 54 36 ed 53 9d 36 d3 4e d6 35 57 6d fd 34
       3.1663294e-06 4.688735e-06 1.5967183e-06 4.7204477e-07
000140 24 0b 53 35 18 a8 0d be 9d dd 24 be f5 0c ab bd
       7.8619837e-07 -0.13833654 -0.16100164 -0.08352081
000150 73 d1 99 bd b5 d3 a3 bd 8b 71 cc 3d 13 46 a0 bc
       -0.075106524 -0.07999364 0.09982594 -0.019564664
000160 cb 25 61 bd a0 cf 47 3d f6 5a 62 3c 53 db 37 3d
       -0.054967683 0.04878199 0.013815632 0.0448869
000170 58 68 83 3d ca c9 c2 3d 57 8f c9 3d d0 90 20 3e
       0.06416386 0.095111445 0.09841793 0.15680242
000180 8d 50 a1 3c b1 68 98 bb 81 24 f4 3d b5 8b 29 bd
       0.01969173 -0.004651152 0.11921025 -0.041393
000190 06 af 55 bd fd 09 90 3d a0 59 80 bd e0 8c 71 bd
       -0.05216887 0.07033155 -0.062670946 -0.05897224
0001a0 96 f8 82 3d 45 32 fc bd bf 81 02 be c8 be a0 bc
       0.0639507 -0.12314276 -0.12744807 -0.019622222
0001b0 40 22 7c bd 91 7b f3 bd 19 7d 82 bd 81 c6 88 bd
       -0.0615561 -0.11888803 -0.06371517 -0.066784866
0001c0 37 d3 ab 3d f5 89 21 bd 3b f8 9d bb 6b 85 bb 3d
       0.083898954 -0.039438207 -0.004820851 0.09156307
0001d0 b3 f1 78 3d d4 f1 9d bd 65 35 49 b9 07 6f 8d bc
       0.060777377 -0.07712141 -0.00019188745 -0.017264856
0001e0 4a 2b 2f 3e 89 8e 47 3e a4 6e 2a 3e a5 6d 34 3e
       0.17106357 0.19487967 0.16643769 0.17619951
0001f0 33 ce 9c 3e e3 11 58 3e 3e 75 9e 3d 65 1b 14 3e
       0.30626068 0.21100573 0.07737206 0.14463575
000200 78 86 0b 3e 29 e7 09 3d e8 5e 08 3e f5 07 51 3e
       0.13625515 0.033667717 0.13317454 0.20413192
000210 c2 22 07 3e fa a1 78 3e 07 d6 68 3e 95 5b d4 bd
       0.13196853 0.24280539 0.22737895 -0.103690304
000220 97 eb 13 be d7 d4 25 bd 15 80 f1 3d a3 27 1b 3e
       -0.14445339 -0.040486183 0.11792008 0.15151839
000230 a4 af 0a 3e 82 4d b5 3d 37 75 7f 3e 32 b3 e5 3d
       0.13543564 0.08852674 0.24947058 0.112158194
000240 64 69 0a ba 20 36 94 b9 ae 5f 1c b9 73 7d 34 ba
       -0.00052799867 -0.00028269086 -0.00014912963 -0.00068851485
000250 8c 63 f3 b9 a8 63 ca b8 5b ae 98 ba 33 a3 16 ba
       -0.0004642274 -9.650673e-05 -0.0011648642 -0.00057463645
000260 46 c2 47 b9 6f 1a 67 be e6 5d a3 3d 76 c4 29 3e
       -0.00019050491 -0.22568677 0.07976894 0.1657885
000270 1b 53 7f be ae e9 60 bc 1e 51 78 3e 17 7e 36 be
       -0.24934046 -0.013727589 0.24249694 -0.17821537
000280 a1 ee 88 bd 0b 99 3a 3e 55 3d 2a bd 92 db be bd
       -0.0668614 0.18222444 -0.041562397 -0.093192235
000290 f3 5c f8 3d ba 96 eb 3d d3 f8 12 3c a6 fc d8 bc
       0.12127104 0.11503358 0.008970457 -0.02648766
0002a0 d5 14 5a 3e 6f 99 5c 3d f8 2f 61 3c 65 4c c2 3d
       0.2129701 0.053857263 0.013744347 0.09487227
0002b0 ef ae ea 3d 43 df ab 3d 00 63 21 3e 49 6a 4f 3e
       0.11459147 0.08392193 0.15760422 0.20255388
0002c0 24 59 3e 3d c8 04 ec 3d af ba 81 3d e5 8d 14 3d
       0.04647173 0.115243495 0.06334435 0.036268134
0002d0 c1 e1 8a bd fb 20 8d bd e0 97 ed bd 61 43 8b 3c
       -0.067813404 -0.06891056 -0.116012335 0.016999902
0002e0 f3 b3 e2 bc ef d0 4a be c9 3b a9 3d c8 b5 82 3d
       -0.027673697 -0.19806264 0.08263356 0.06382328
0002f0 12 ed 98 bd ed 48 db bd 63 b9 5d 3d 4b 08 d4 3b
       -0.074670926 -0.10707269 0.054131877 0.006470715
000300 32 dd b4 3d 42 6e 78 3e 6c 39 9a 3c 26 79 c0 3d
       0.08831252 0.2426081 0.018826209 0.09398107
000310 ae c6 7c 3e 94 36 10 3d 8b 19 36 bc 04 80 23 3d
       0.24685165 0.0352083 -0.011114488 0.039917007
000320 5b ef 88 bd 41 f2 83 3d ec a0 87 3c 7e 69 0a bf
       -0.066862784 0.06442691 0.016556226 -0.5406722
000330 b2 ea 84 3e 10 fb 42 3e 63 ab 8b bc 2d 48 3c 3d
       0.25960308 0.19041085 -0.017049497 0.04596727
000340 54 ea 28 be 70 5b 2a be 1d 63 13 3e be e2 05 be
       -0.16495639 -0.16636443 0.14393277 -0.13074777
000350 23 a1 b6 be c5 4d 13 3e 25 21 0f 3b 8c 8e 5d be
       -0.35669813 0.14385135 0.0021839824 -0.21636409
000360 a2 cf 66 bb 19 5c 21 bb cc 81 44 ba 07 44 32 bb
       -0.0035218974 -0.0024621545 -0.0007496148 -0.0027201192
000370 35 4e 52 bb bc c8 bd ba 24 e8 ec ba 14 ed f9 ba
       -0.0032090072 -0.0014479379 -0.0018074554 -0.0019067847
000380 eb 23 85 ba 15 f2 ad 3c 71 4c bc 3d 51 ca 39 3e
       -0.0010157799 0.021233598 0.091942675 0.18143584
000390 37 04 e4 bc 26 1d 32 3d a3 54 22 3e 6e 22 8e bd
       -0.027834041 0.04348483 0.15852599 -0.06940161
0003a0 76 5d 00 bd 18 e6 62 3d 55 7d db bd 6b d6 30 bc
       -0.03133913 0.055395216 -0.107172646 -0.010793309
0003b0 9b 69 04 3e 1b 63 22 be 59 4f 99 bd 35 1a 0e bd
       0.1293091 -0.15858118 -0.074858375 -0.03469296
0003c0 69 6c 7f bd fb 8e d4 bc 77 3d 4c bd 05 1f 22 3d
       -0.062359247 -0.025947085 -0.049863305 0.039580364
0003d0 c8 59 8c 3d 13 d2 90 3e eb 83 40 bd 73 47 dc bd
       0.06853062 0.28285274 -0.047000807 -0.10755815
0003e0 2f 64 29 3d 2d 30 1e bc 51 61 2f bd 97 96 7a bd
       0.04135531 -0.009655041 -0.042817418 -0.06117877
0003f0 f3 e0 99 3d e7 46 71 3d 78 84 0d 3e 67 df 10 3d
       0.07513609 0.05890551 0.13820064 0.035369303

conv4.weight f4 [8, 8, 3, 3]
000000 0a 96 00 80 8a 0e 00 00 e6 9f 00 80 f6 ab 01 80
       -5.3824e-41 5.216e-42 -5.7361e-41 -1.53523e-40
000010 bc f2 00 80 48 20 00 00 4d f5 00 80 49 22 01 80
       -8.7077e-41 1.158e-41 -8.7997e-41 -1.04135e-40
000020 1f da 00 80 87 31 39 b5 45 00 fd b3 ff 19 8a b2
       -7.8247e-41 -6.898994e-07 -1.17812796e-07 -1.6077136e-08
000030 f4 d1 fb b4 73 8b 16 b1 bc 8b a1 ab 6f 27 46 b4
       -4.6905154e-07 -2.190714e-09 -1.1478522e-12 -1.8454533e-07
000040 4f 80 0c af 24 59 b6 ad 73 4f 00 80 54 c7 00 80
       -1.277851e-10 -2.073059e-11 -2.8501e-41 -7.1505e-41
000050 87 53 00 00 54 35 00 80 4b 12 00 80 d0 6f 00 00
       2.9964e-41 -1.913e-41 -6.562e-42 4.0111e-41
000060 66 1c 01 80 d2 04 00 80 5a c2 00 80 be 9b f0 94
       -1.02023e-40 -1.729e-42 -6.972e-41 -2.4295236e-26
000070 2c 14 f3 8e b9 2b 00 00 17 fa 9e ac b5 83 96 ae
       -5.992355e-30 1.5685e-41 -4.5183956e-12 -6.844606e-11
000080 78 00 af 8d 4d e4 9b b0 ec 2a 17 b1 78 b8 c4 97
       -1.0785321e-30 -1.1342621e-09 -2.199779e-09 -1.271277e-24
000090 58 e8 f7 b5 aa a5 d2 b7 0d 04 b7 b7 cd a6 a6 b7
       -1.8470555e-06 -2.5111094e-05 -2.1817186e-05 -1.9866415e-05
0000a0 8b 69 21 b9 d3 45 3d b9 4d f2 dd b7 14 1f 88 b9
       -0.00015393474 -0.00018050456 -2.6458083e-05 -0.00025963096
0000b0 b4 18 95 b8 53 ef 00 80 52 5b 01 80 f8 f5 00 80
       -7.109475e-05 -8.5853e-41 -1.24595e-40 -8.8237e-41
0000c0 be 45 00 00 83 c8 00 80 8c 68 00 00 7e 18 01 00
       2.5019e-41 -7.193e-41 3.7504e-41 1.00622e-40
0000d0 94 8c 01 00 c4 c6 00 00 65 67 0f bb d9 71 71 bb
       1.42265e-40 7.1304e-41 -0.0021881696 -0.003684154
0000e0 3b f8 82 bb ee af 8d bb 42 fe f1 bb 79 8c 9e bb
       -0.0039968765 -0.004323951 -0.007385046 -0.004838523
0000f0 0a 0a 61 bb ea 23 d1 bb a9 44 9e bb 28 e3 00 00
       -0.003433826 -0.006382455 -0.0048299623 8.1488e-41
000100 82 b0 01 00 a8 6d 01 80 0f 64 01 00 3a 96 01 00
       1.55155e-40 -1.31173e-40 1.2773e-40 1.45727e-40
000110 49 78 00 00 1d db 00 80 87 17 01 80 c3 ec 00 00
       4.315e-41 -7.8603e-41 -1.00276e-40 8.4934e-41
000120 68 ab 00 00 73 48 ec 81 4e 46 cf 8d e5 42 00 00
       6.1489e-41 -8.679667e-38 -1.2774285e-30 2.3997e-41
000130 8f b3 59 8a ac 83 02 8a ee 20 8f 02 fa ec a3 0f
       -1.0481941e-32 -6.284037e-33 2.1030862e-37 1.6164321e-29
000140 8c 26 be 0b 10 35 2c 8a f6 e5 3d 95 eb f0 69 92
       7.3243337e-32 -8.291479e-33 -3.8349653e-26 -7.381879e-28
000150 3d 0f f3 94 ff 7c 87 9b b3 ba f8 95 98 0d 2f 97
       -2.454274e-26 -2.2414653e-22 -1.0046096e-25 -5.6562707e-25
000160 9e 58 f5 9b 08 0d 7e 93 86 ce 00 80 bf 52 00 00
       -4.0589118e-22 -3.2065732e-27 -7.4087e-41 2.9684e-41
000170 96 e6 00 00 4b 71 01 80 06 53 00 80 69 bf 00 80
       8.2719e-41 -1.32477e-40 -2.9783e-41 -6.8665e-41
000180 9d 7a 00 80 6b 56 01 80 2d 69 00 80 7b ba 00 80
       -4.3985e-41 -1.22836e-40 -3.773e-41 -6.6897e-41
000190 47 84 00 00 53 30 00 00 e5 31 00 00 a1 6b 00 80
       4.7452e-41 1.7335e-41 1.7899e-41 -3.861e-41
0001a0 28 40 00 00 ea 27 00 80 27 5c 00 80 fc 1c 00 00
       2.3015e-41 -1.4318e-41 -3.3058e-41 1.0398e-41
0001b0 19 6c 00 00 dc aa 00 80 71 78 00 80 bf b0 00 00
       3.8778e-41 -6.1293e-41 -4.3206e-41 6.3405e-41
0001c0 c2 67 00 80 47 2d 00 00 ac 7e 00 00 ab 4b 00 80
       -3.7221e-41 1.6242e-41 4.5441e-41 -2.7145e-41
0001d0 5f 51 00 00 ea 47 00 80 0f 75 00 00 11 12 01 80
       2.919e-41 -2.5798e-41 4.1993e-41 -9.8317e-41
0001e0 1e a0 00 80 50 02 00 00 5a 46 01 80 85 6c 00 80
       -5.7439e-41 8.3e-43 -1.17073e-40 -3.893e-41
0001f0 ad dd 00 80 b1 89 00 00 ad 20 95 a4 48 91 c6 a9
       -7.9522e-41 4.9394e-41 -6.4673804e-17 -8.8181686e-14
000200 54 1c 13 aa 55 2a d0 a7 52 e1 12 ab 48 a1 88 a9
       -1.3066051e-13 -5.7777494e-15 -5.2182314e-13 -6.067591e-14
000210 30 f5 df a7 64 71 69 aa 2c 52 74 a8 bf ac 00 00
       -6.2160766e-15 -2.0733897e-13 -1.3562539e-14 6.197e-41
000220 28 9d 00 00 e3 57 00 80 70 89 00 80 b7 36 00 80
       5.6377e-41 -3.1528e-41 -4.9303e-41 -1.9628e-41
000230 ec 73 00 80 7b 00 00 00 a2 8a 00 80 ce 65 00 00
       -4.1585e-41 1.72e-43 -4.9732e-41 3.652e-41
000240 94 27 00 00 49 32 88 88 9e 19 3e 0d 7b 14 00 00
       1.4198e-41 -8.197024e-34 5.8579106e-31 7.347e-42
000250 82 5c b0 8b 85 d7 58 0f aa fa 64 05 a0 be 57 0d
       -6.7931924e-32 1.069113e-29 1.0766548e-35 6.6481447e-31
000260 fd b5 e7 08 33 84 d6 3c d1 b3 c0 bb 97 ef 0f 3c
       1.3945592e-33 0.026186084 -0.005880811 0.00878515
000270 55 9c 80 bc 19 ff a4 bd 97 94 88 3d 71 73 20 3e
       -0.015699545 -0.080564685 0.06668966 0.15669037
000280 a7 bf f2 3c 19 69 be 3d 2f 17 4d be 7a 4b ba bd
       0.029632403 0.092973895 -0.20028375 -0.09096427
000290 66 7a 09 be 1f 0e df 3d a7 51 a0 bd d8 a0 17 be
       -0.13425598 0.10891365 -0.07828074 -0.14807451
0002a0 9a 7e 82 be a6 4a 96 be 9b fd 8e 3d 55 23 9b be
       -0.25487214 -0.29353827 0.06981965 -0.30300394
0002b0 a4 89 b9 bd 86 af cb bd 80 f6 b3 bd 16 74 28 3e
       -0.09059456 -0.09945588 -0.087872505 0.16450533
0002c0 a7 66 f1 bd 96 37 6d bd 65 ea aa 3d 6a f5 98 bc
       -0.117871575 -0.05791434 0.083454885 -0.01867171
0002d0 2c 63 24 bd a4 73 38 be bc d8 06 be ea b1 d1 3d
       -0.04013364 -0.18012863 -0.13168615 0.102390125
0002e0 7f d1 b0 3c 06 cc 72 3c 56 0d ab 3d f7 87 6b 3b
       0.02158427 0.014819151 0.08352153 0.0035939196
0002f0 af d8 a5 bc 29 5f 00 00 6b 92 00 80 9e 10 00 80
       -0.020244924 3.4137e-41 -5.2525e-41 -5.961e-42
000300 22 60 00 00 ec 89 00 80 6e a1 c8 8d 13 84 00 80
       3.4486e-41 -4.9477e-41 -1.2364814e-30 -4.738e-41
000310 8c d1 03 80 ae 7d 85 93 db 30 0b bd e7 d7 84 bd
       -3.50678e-40 -3.369785e-27 -0.03398214 -0.064864926
000320 0a 50 f9 bd c3 60 a0 3d ae db b8 3d 1c 3f 14 bd
       -0.12173469 0.07830956 0.090262756 -0.036193
000330 4a 2f af bc 91 99 84 ba c5 eb ae 3c dd 09 00 80
       -0.021384854 -0.0010116567 0.021352658 -3.538e-42
000340 bd 41 00 80 07 79 00 80 af 1c 00 80 da 34 00 00
       -2.3582e-41 -4.3416e-41 -1.029e-41 1.896e-41
000350 8a b8 00 00 3f a7 00 00 bf 48 00 80 ab 88 00 80
       6.62e-41 5.9997e-41 -2.6096e-41 -4.9027e-41
000360 47 31 00 80 5f 71 01 80 47 83 00 00 da f6 00 80
       -1.7677e-41 -1.32505e-40 4.7093e-41 -8.8554e-41
000370 f5 d1 00 80 97 08 01 00 ff 11 00 80 01 61 00 80
       -7.5318e-41 9.4917e-41 -6.456e-42 -3.4798e-41
000380 a6 9b 00 80 e6 db 11 be c5 5d 50 bb 56 05 6b be
       -5.5836e-41 -0.14244041 -0.0031794172 -0.22951254
000390 88 46 8d 3d 12 e7 a3 3e c3 cd f5 3d 8d 24 21 bd
       0.068982184 0.3201223 0.120021366 -0.0393415
0003a0 53 6f 2c 3d 8e 5c 5e 3c 6b 4f ed 3c 3b 65 d9 3e
       0.042098355 0.013571871 0.028968534 0.42460045
0003b0 dd d8 e7 3d 91 be 37 3d 76 93 8d 3d 23 4f c3 3d
       0.1132066 0.044859473 0.069128916 0.095365785
0003c0 11 05 ff 3c f6 d9 04 be cc a3 78 bd 49 71 c4 3d
       0.031130346 -0.1297377 -0.060703084 0.0959192
0003d0 b4 c8 7b 3e a9 6d c8 3c 10 3f 14 be 0b bb c6 3d
       0.24588281 0.024466353 -0.14477181 0.09703644
0003e0 12 73 d7 bc 2a b3 84 bb e3 a7 e4 bc db 4c 3a 3c
       -0.026299987 -0.0040496783 -0.027912086 0.011370863
0003f0 c8 cf 50 3e 36 53 04 bd d6 5c 2f be 13 e5 b7 3d
       0.20391762 -0.03230592 -0.17125258 0.08979239

conv5.weight f4 [4, 16, 3, 3]
000000 76 a2 b9 3b 71 48 fc 3b 57 ed fb 3b 3f 8d f7 3b
       0.005665119 0.0076990654 0.007688205 0.0075546796
000010 ee 3f 47 3c 8e b7 40 3c 32 55 0d 3c 59 40 5a 3c
       0.012161238 0.011762513 0.008626269 0.013321006
000020 d3 3d 38 3c a6 f6 b5 3d 60 be 3a bd d9 b2 74 bc
       0.011245209 0.08884935 -0.045591712 -0.014935219
000030 f2 5d 8f bd 18 7a c6 ba e5 bd 3f bd 2a 34 5b 3d
       -0.070003405 -0.0015142588 -0.046811957 0.053516544
000040 4c a7 29 3c 96 64 e2 3c cb 87 84 3d 0b af b2 3c
       0.010354828 0.027635854 0.06471213 0.021811983
000050 ae 11 5e 3c 54 06 11 bb ee d2 d0 bb 07 37 b1 3d
       0.01355402 -0.0022129016 -0.006372801 0.08653074
000060 f6 84 2b 3d af be d2 3c d2 c1 4e 3d a2 eb ba 3c
       0.04187485 0.02572569 0.05047781 0.022817437
000070 c4 9a b6 3d 41 31 3b bd 97 97 87 3d 91 4f a9 bc
       0.08916238 -0.04570127 0.0662071 -0.020667823
000080 b5 c3 5d 3d d1 db 28 3c 56 a2 6c 3d 51 85 ec bc
       0.05414172 0.010306315 0.057772003 -0.028872164
000090 72 7d 23 3d b8 20 90 bb 6e 76 1a 3d 03 93 2f 3c
       0.039914556 -0.0043984316 0.0377106 0.010716203
0000a0 a4 d1 29 3d 94 fe c8 3d 86 b4 8a 3c 7e 3b 4f 3d
       0.041459695 0.09814182 0.016931783 0.050593846
0000b0 70 86 78 3d 4d 61 85 bc 96 2b 43 bd d7 c8 63 3d
       0.060675085 -0.016281748 -0.04764899 0.055611458
0000c0 9f e6 8c 3c 55 57 30 3e 0f ad 9c 3d 12 86 a6 3b
       0.017199812 0.17220815 0.07650196 0.0050819004
0000d0 e4 61 ba 3d 7c 44 92 3d 69 f6 42 3e 6f 2e 06 3e
       0.091007024 0.071419686 0.1903931 0.1310365
0000e0 07 cb 66 bd 6a 88 3a 3e ac 86 0f be 15 5d 08 be
       -0.056345966 0.182161 -0.14016217 -0.13316758
0000f0 e3 66 91 bd 31 8f 0c be 5a f4 bb 3d 2e 7c 5e 3d
       -0.07099702 -0.13726498 0.09177466 0.054317646
000100 62 69 6a bd d3 6e 00 bd 27 4d 61 bb bd ef 00 bd
       -0.057229407 -0.03135569 -0.0034378262 -0.031478632
000110 5b 42 d4 bb 21 2e c5 3d 49 50 2d 3d 3b 7e 98 bc
       -0.0064776368 0.09627939 0.042312894 -0.018614879
000120 d3 62 0b 34 11 19 38 35 1c eb 2e 36 fb bb 2d 34
       1.2981336e-07 6.858182e-07 2.6064872e-06 1.6180267e-07
000130 42 41 65 35 43 5e 84 36 72 2f 0d 34 fa 30 54 35
       8.540411e-07 3.94488e-06 1.3148909e-07 7.9047425e-07
000140 61 60 4d 36 ce 6a 12 19 76 3b 16 18 4e 44 0c 15
       3.060348e-06 7.569592e-24 1.9417066e-24 2.8326658e-26
000150 d5 97 e2 19 a3 29 48 18 13 41 b9 95 df 68 1c 18
       2.3429177e-23 2.5870415e-24 -7.4823574e-26 2.0215474e-24
000160 e2 ab b8 15 57 64 6c 95 25 ce ea 3d 9b 26 b3 3c
       7.458819e-26 -4.7738975e-26 0.114651 0.021868994
000170 79 db 52 bd 60 d9 b3 3d 67 0c ae bd f4 07 d5 bd
       -0.051478837 0.08781695 -0.08498459 -0.104019076
000180 20 3d 63 3c f4 ce 21 be f1 46 25 be 31 ef 64 bd
       0.013869554 -0.15801603 -0.16140343 -0.055892173
000190 15 6b 4f 3a b3 e0 dc 3d 1c 88 08 bd 93 19 9c bc
       0.000791238 0.107850455 -0.03333293 -0.019055163
0001a0 7b 57 e0 3b 3f aa f9 bd 72 bd d2 bd 81 ef d2 3c
       0.006846366 -0.12190675 -0.1029004 0.02574897
0001b0 35 24 2b 3d 2f 64 ec b8 98 f7 45 bc 64 51 fc 3c
       0.041782577 -0.000112720176 -0.012082957 0.030800529
0001c0 52 82 5c bd c3 0e a4 bd 12 3c 37 3d b5 8c 99 bd
       -0.05383522 -0.08010628 0.044735022 -0.07497541
0001d0 ce 31 ed bd fc 46 49 3d 37 f2 25 3d 5a 37 5f 3d
       -0.11581765 0.04913996 0.040514197 0.054496147
0001e0 34 ef e4 bb 53 2f a0 bc b1 6f 86 bb 51 6a 02 bc
       -0.006986523 -0.019553816 -0.00410267 -0.007959918
0001f0 d1 53 92 bc 95 33 ec bc 8e 59 8a 3d 5a 39 0f bc
       -0.017862232 -0.02883319 0.067553625 -0.008741701
000200 00 34 b7 bd c4 e9 6f 3d a9 ee 27 bd fb 9d 07 be
       -0.08945465 0.058572546 -0.04099909 -0.13243859
000210 4d 6a 07 3d 6a 5f 7c bd 46 d7 e1 bd 04 36 d6 bc
       0.03306036 -0.06161443 -0.11027388 -0.026148804
000220 22 7d 15 be 27 94 0d be 95 cc 1c 3d 4e af ed bc
       -0.14598516 -0.13826047 0.038281042 -0.029014256
000230 29 92 37 bd fc 18 10 3e 5d 07 9b 3d 52 c3 ad 3d
       -0.044817124 0.14072031 0.07569764 0.0848452
000240 23 18 64 bc a9 6a 7c bc 73 3b 74 bc 42 76 8b bc
       -0.01392177 -0.015406289 -0.014906752 -0.017024163
000250 d1 2f b0 bc b5 0c 9c bc d1 48 8d bc da 94 bb bc
       -0.021507176 -0.019049028 -0.017246636 -0.022898126
000260 dc 9e a9 bc d5 66 c9 bc 6a 34 c7 3d 2c c2 af bc
       -0.020705633 -0.024585167 0.09726794 -0.021454893
000270 e2 31 ba 3d 56 fe 0d 3c c9 56 21 3d 18 57 8f 3d
       0.09091546 0.008666595 0.039389405 0.06999034
000280 f5 8e 34 bd 28 c1 b4 bd 2a 2c 19 3b 08 12 ee 3d
       -0.044081647 -0.08825904 0.002337227 0.11624533
000290 d0 aa 12 bd eb c3 e3 3d ce ed cf 3d 82 d2 1c bc
       -0.03580743 0.11121353 0.101527795 -0.009571673
0002a0 7e 58 8d bd 1a 91 f2 3d 39 8d 6b 3d 51 d3 b8 3b
       -0.06901644 0.11844082 0.057507727 0.0056404253
0002b0 a0 25 3c bc e1 bf 44 bd b8 b7 8b 3c 11 4f 2b 3d
       -0.01148358 -0.048034552 0.017055377 0.04182345
0002c0 97 46 73 bd ef ef 82 bd 67 42 73 3d 34 59 54 bc
       -0.05939349 -0.0639342 0.059389498 -0.012960721
0002d0 60 6c e0 3d a5 6f 5b bb e6 92 81 ba 71 fe 1e 3e
       0.10958171 -0.0033483293 -0.0009885698 0.15526749
0002e0 90 98 8b 3d 3f ff 23 3c af f9 46 3d 3e 0e 77 3c
       0.06816208 0.010009586 0.04857796 0.015079079
0002f0 16 2b 03 bd 7c ef ac 3c 83 a9 cf 3d f0 c0 66 3d
       -0.03202351 0.021110289 0.10139754 0.056336343
000300 b0 6a f9 3d ea d5 b2 3d c6 dc c9 bc e6 bd b7 bd
       0.12178552 0.08732207 -0.024641406 -0.08971767
000310 a3 89 7a bd 59 c7 aa bd bb 28 f1 bc 7b 0e 8a 3c
       -0.061166417 -0.08338804 -0.029438367 0.016852608
000320 c3 f0 f4 bd 94 cb 38 3c 70 97 4b 3f 61 08 6f 3e
       -0.11959984 0.011279006 0.7952795 0.2334304
000330 af 78 9c be 7e 4d 13 3e ab 58 35 be e2 59 15 bd
       -0.30560824 0.1438503 -0.17709605 -0.036462672
000340 05 e6 8c 3d d4 8d 5a 3d 9f 43 c7 3d c2 8b 67 3b
       0.0687981 0.053357914 0.097296946 0.0035331105
000350 47 1e 3c bd 5c a1 5c 3c fe 66 de ba de 56 8b bc
       -0.045927312 0.013466205 -0.001696795 -0.017009195
000360 ab 8c 83 b8 76 45 f8 b8 2c 46 41 b9 98 67 55 b8
       -6.272768e-05 -0.000118384996 -0.00018432055 -5.0879637e-05
000370 b3 42 18 b9 b9 b2 98 b9 5f 2e 72 b8 53 7f c3 b8
       -0.00014520697 -0.00029124858 -5.7740483e-05 -9.3220406e-05
000380 7b 2e 95 b9 d6 7d 00 80 ee 3e 00 00 3f 71 00 00
       -0.00028454125 -4.5141e-41 2.2575e-41 4.0625e-41
000390 e1 29 00 00 f1 06 00 80 32 0e 00 80 84 36 00 00
       1.5023e-41 -2.49e-42 -5.092e-42 1.9557e-41
0003a0 4f 59 00 00 66 0c 00 00 2e 69 c6 bd d6 6c 43 3a
       3.2038e-41 4.448e-42 -0.0968803 0.00074548775
0003b0 d5 e0 83 bd 2b f3 04 bd c9 ea 92 3d e0 7b b7 3c
       -0.06439368 -0.032458466 0.07173688 0.022397935
0003c0 48 e5 fd 3c 78 fd ed 3d e4 f0 aa 3d 2b c9 1c 3e
       0.030993119 0.11620611 0.083467275 0.15311114
0003d0 99 df 03 3e 24 46 cf 3b 89 f3 76 3e ef 86 87 3e
       0.12878264 0.0063255 0.24116339 0.26470134
0003e0 cf bd 9c 3d fe e4 e3 bd 49 ed 1e bd 3a 3d 92 bd
       0.076533906 -0.11127661 -0.03880051 -0.07140584
0003f0 c7 9c 4a bd e3 66 9f bb 30 01 dd 3c 68 bc 94 bd
       -0.04946592 -0.00486456 0.026978105 -0.07262498

conv6.weight f4 [1, 8, 3, 3]
000000 c3 f1 43 3d cd 54 ce 3d ea 43 38 bd d1 1a ab 3e
       0.047837984 0.10074768 -0.044986643 0.33418897
000010 ae ff dd 3d 58 15 0c 3d 0f b7 a8 3c c7 63 53 3d
       0.10839783 0.034200042 0.020595102 0.051608827
000020 75 bf 85 3c c2 16 85 be d3 12 1e 3e 09 8c 8d bd
       0.016326645 -0.25993925 0.15436868 -0.06911475
000030 af 72 62 3d 2f 63 a1 3e ad f9 eb bd 7e f6 c8 bd
       0.055285152 0.31520984 -0.11522231 -0.0981264
000040 5a dc 9d bd 3f 70 db bd d0 98 61 3d 3a b8 8d bd
       -0.07708044 -0.107147686 0.055077374 -0.06919904
000050 8b 27 d5 3c 9c 43 64 3e b3 b6 0a 3e e5 ff 47 bd
       0.026019832 0.22291416 0.13546257 -0.048828024
000060 68 30 c7 bc 01 dc 37 3d 2e b1 af bb fa 8a 5d 3d
       -0.024315074 0.044887546 -0.0053616976 0.054087617
000070 de de dd 3c d2 16 a4 3c 48 1f d7 3e 4f 16 37 3e
       0.02708381 0.020030413 0.42016053 0.17879604
000080 f6 91 0e bd ac 9e bd 3e 96 ea 1e 3e 43 af 35 bd
       -0.034807168 0.3703512 0.15519175 -0.044356596
000090 9f 69 51 3d 0f 91 68 3d 65 92 9a 3c 48 7b 95 3d
       0.05112612 0.056778964 0.018868634 0.07298905
0000a0 c8 ec d8 3d 7e f7 1e bd 8d 46 a0 3d d6 e1 95 bd
       0.105920374 -0.038810246 0.078259565 -0.073184654
0000b0 2b ee 5c be f3 0b 02 be 64 7b 41 bd a9 34 29 bd
       -0.21575229 -0.12699871 -0.047236815 -0.041309986
0000c0 2f 53 70 be f0 69 84 be 7f 53 8a bd bc 22 36 bc
       -0.23469232 -0.25862074 -0.06754207 -0.01111668
0000d0 f2 64 1a 3d de 0d 07 3e a3 da 07 3e 29 7d a0 bd
       0.037693925 0.13188884 0.13266997 -0.078363724
0000e0 55 5e a1 3d 1b 1b 89 3d 34 8c 30 3e ad 2a df 3d
       0.078793205 0.06694623 0.17240983 0.10896812
0000f0 34 6e f2 3d 85 26 71 3d 6d 83 ed 3c 8d d9 18 3d
       0.11837426 0.058874626 0.028993333 0.037316848
000100 0d 48 c6 3b c6 00 00 3e 0a a6 79 be 4c be 80 be
       0.0060510696 0.12500295 -0.24379745 -0.25145185
000110 95 1d cc 3d bd 57 a0 be 00 81 37 bf ef 98 f8 be
       0.0996658 -0.3131694 -0.71681213 -0.4855418

exp_avg f4 [4, 3, 3, 3]
000000 e4 c2 6c 3a c6 98 ce 39 56 1b 65 3a a1 d7 88 3a
       0.00090317265 0.00039405207 0.000873973 0.0010440239
000010 18 86 9b 39 af cf 33 3a 9d e2 92 3a 6f 1f 9d 39
       0.0002966381 0.00068592554 0.0011206452 0.00029968793
000020 7f 00 d0 39 23 62 b5 3a d2 78 30 3a 19 e1 b2 3a
       0.0003967322 0.0013838451 0.0006731871 0.0013647407
000030 4d b5 d5 3a d4 11 3c 3a 6b 9d 9e 3a 3e f2 ca 3a
       0.0016304642 0.00071742875 0.0012101358 0.0015483571
000040 af cb 34 3a fb a6 98 3a a4 94 c4 3a 62 bc 69 3a
       0.00068968063 0.0011646444 0.0014997912 0.0008916316
000050 b7 dd cf 3a 64 10 d6 3a 76 8b 6b 3a 22 b6 c9 3a
       0.0015858923 0.0016331789 0.000898532 0.0015389363
000060 0a 24 d7 3a 0a 0a 51 3a 63 3e aa 3a 20 f1 99 38
       0.0016413939 0.0007974213 0.0012988563 7.3405216e-05
000070 49 dc 02 38 b1 99 14 3a 89 8d d1 b9 6b 93 58 ba
       3.1199572e-05 0.0005668654 -0.00039969038 -0.0008261713
000080 bb 20 1e ba 9f 76 19 ba ac 18 b1 ba 61 9f 3a ba
       -0.0006032099 -0.0005854163 -0.0013511381 -0.0007119086
000090 ad 03 e8 b9 b6 1d 4c ba 67 33 a6 b9 13 ba 33 ba
       -0.00044253227 -0.00077864097 -0.00031700285 -0.00068560353
0000a0 7f e5 bf ba fb a5 a6 ba 59 b6 88 ba d3 f1 fa ba
       -0.0014640539 -0.0012714261 -0.001043032 -0.0019145556
0000b0 60 e7 b0 ba 63 ab cf b9 04 f7 22 ba ae c8 21 b9
       -0.001349669 -0.0003960981 -0.0006216618 -0.00015428916
0000c0 f2 88 4b ba 56 2b af ba 8c b6 a3 ba 37 3a 8b ba
       -0.0007764242 -0.0013364356 -0.0012490316 -0.0010622208
0000d0 c0 a0 e8 ba c1 94 b8 ba ff 01 45 bb 94 c3 67 bb
       -0.0017748103 -0.0014082418 -0.0030061004 -0.0035364376
0000e0 70 20 53 bb c4 c8 2e bb 3e 26 4d bb f2 bc 5a bb
       -0.003221538 -0.0026669959 -0.0031303312 -0.003337678
0000f0 2d ca 1f bb fe 92 3e bb d1 cc 4e bb a1 cf ee ba
       -0.002438198 -0.0029079313 -0.0031555186 -0.0018219837
000100 3a eb 2c bb c1 30 1b bb 13 16 d3 ba 3a 6d 18 bb
       -0.0026385323 -0.0023680183 -0.0016104601 -0.0023258463
000110 61 71 1d bb 81 f7 dc ba 51 53 11 bb 7e 17 12 bb
       -0.0024023878 -0.001685843 -0.0022174905 -0.0022291834
000120 6d 44 00 bb 6c 74 2f bb bf 5a 11 bb e0 28 da ba
       -0.0019572035 -0.0026772274 -0.0022179333 -0.0016644262
000130 2f 66 15 bb c4 d7 13 bb a6 b3 db ba 41 13 11 bb
       -0.0022796502 -0.0022559026 -0.0016761913 -0.002213672
000140 ee e9 0f bb 55 c0 d7 39 58 e3 09 3a 07 41 f9 39
       -0.0021959501 0.00041151294 0.0005260012 0.0004754143
000150 69 51 5f b7 65 67 ac b9 4f fb ef b9 d8 f9 d8 b9
       -1.3310791e-05 -0.0003288343 -0.00045772872 -0.0004138488
000160 ef 50 36 ba f4 2e 93 b9 e2 4e db 39 85 be 84 39
       -0.0006954809 -0.00028073008 0.00041829707 0.0002531895
000170 75 f9 12 39 63 2d d9 39 50 08 8c b9 76 fe 8a b9
       0.00014016575 0.0004142328 -0.00026709074 -0.00026511
000180 4e 20 a5 b7 07 d5 72 b9 13 15 9a 39 31 1b 23 3a
       -1.9684576e-05 -0.00023158277 0.0002938887 0.00062220084
000190 16 4c 2f 3a 62 c7 3c 3a 45 8a 17 3a 0f 86 27 39
       0.0006687058 0.0007201341 0.00057807966 0.00015976302
0001a0 7c 1f 50 39 07 18 5c 39 74 14 cb 38 d2 fb 25 3a
       0.00019848155 0.00020989786 9.683604e-05 0.00063317746

exp_avg_sq f4 [4, 3, 3, 3]
000000 1a b9 86 3a 83 a0 97 3a 56 6e 88 3a c7 d5 89 3a
       0.0010278553 0.0011568222 0.0010408859 0.0010515981
000010 87 c6 9a 3a 05 03 8a 3a 9d 01 63 3a 59 d9 7e 3a
       0.0011808433 0.0010529464 0.0008659603 0.00097217184
000020 45 70 64 3a c7 b1 21 3a 9a 0b 39 3a 7b 71 28 3a
       0.0008714239 0.00061681535 0.00070589187 0.00064256013
000030 21 0a 28 3a 0e 4a 40 3a d9 7a 2d 3a ba 51 0d 3a
       0.0006410201 0.0007335254 0.0006617732 0.00053909014
000040 1b 5e 20 3a 12 25 11 3a 1e 5d 42 3a a5 c9 5f 3a
       0.00061175384 0.0005536835 0.0007414388 0.0008536822
000050 34 98 49 3a 36 b8 49 3a c6 2c 68 3a 97 15 4f 3a
       0.00076902215 0.0007694991 0.00088567694 0.00078996405
000060 7d 21 26 3a e3 e2 3d 3a 7e e8 29 3a 79 10 09 39
       0.00063373876 0.00072435866 0.00064814824 0.00013071475
000070 55 79 0c 39 b7 7d 10 39 45 64 1e 39 5c 01 13 39
       0.0001339664 0.00013779743 0.00015105408 0.00014019519
000080 05 e1 0f 39 f8 5c 1b 39 25 e2 0d 39 21 79 19 39
       0.00013721369 0.00014816585 0.00013531053 0.00014636341
000090 4f ab e1 38 03 92 e0 38 48 81 c6 38 e9 f6 17 39
       0.00010760745 0.00010708349 9.465456e-05 0.00014492463
0000a0 b8 e4 00 39 1d 60 cc 38 62 3a 0e 39 32 ae e5 38
       0.00012292236 9.7453805e-05 0.00013563925 0.00010952017
0000b0 f9 fe dc 38 a4 ca ff 38 60 78 ff 38 a0 c2 e8 38
       0.0001053791 0.00012197092 0.00012181769 0.00011098874
0000c0 da d7 28 39 5e b7 10 39 70 fd ed 38 aa f6 1e 39
       0.0001610214 0.0001380122 0.00011348247 0.00015159944
0000d0 19 58 02 39 74 1e ff 38 2f 18 85 3a a0 07 a0 3a
       0.00012430585 0.0001216502 0.0010154302 0.0012209304
0000e0 ac 6d 9b 3a 3a 6f 84 3a 10 9b a1 3a 7e 00 9e 3a
       0.0011858246 0.0010103949 0.0012329537 0.001205459
0000f0 bb 7e 57 3a ab d5 82 3a d2 69 82 3a 2d 58 f9 39
       0.00082204834 0.0009981891 0.000994975 0.00047558677
000100 fd 35 1e 3a ea b5 16 3a c2 e5 f7 39 4b e2 21 3a
       0.00060352666 0.0005749153 0.00047282694 0.0006175383
000110 54 fb 1c 3a 49 13 ba 39 65 25 f3 39 2a aa f4 39
       0.00059883785 0.00035491053 0.00046376433 0.0004666609
000120 c2 4f 24 3a 60 a5 4e 3a 05 0f 46 3a 52 2f 23 3a
       0.00062679884 0.0007882919 0.00075553387 0.0006225008
000130 27 8d 52 3a d1 b5 4c 3a 07 e3 f7 39 d7 d0 1f 3a
       0.00080318976 0.0007809075 0.0004728066 0.0006096488
000140 75 80 20 3a 38 de 4b 39 39 bb 1c 39 69 6e de 38
       0.0006122657 0.00019442372 0.00014947065 0.000106063504
000150 6a f8 82 39 a2 cf 60 39 ee 1f 32 39 3e 2b 80 39
       0.00024980615 0.00021439654 0.00016987298 0.0002444628
000160 25 d4 7d 39 a7 48 59 39 e8 1e a9 38 b3 b8 54 38
       0.0002420699 0.00020721798 8.064305e-05 5.0716753e-05
000170 a3 05 f7 37 26 01 fe 38 ee 0d c9 38 73 71 91 38
       2.944732e-05 0.00012111878 9.5870215e-05 6.93527e-05
000180 45 5b 00 39 f0 b4 ff 38 c4 f2 d1 38 9d 81 e2 38
       0.00012241032 0.0001219305 0.00010011115 0.00010800662
000190 cb a5 95 38 d5 00 36 38 a0 06 24 39 a7 3f 04 39
       7.135755e-05 4.3392956e-05 0.00015642727 0.00012612213
0001a0 0b 2c c2 38 bf f8 23 39 d5 27 23 39 62 7e 06 39
       9.2588445e-05 0.00015637556 0.0001555973 0.00012826317

exp_avg f4 [8, 4, 3, 3]
000000 f4 34 e7 b5 ec 36 ed b5 63 d8 e3 b5 68 fd f3 b5
       -1.7226253e-06 -1.767386e-06 -1.6975795e-06 -1.8178662e-06
000010 39 9c f0 b5 99 f0 e5 b5 b5 d6 dc b5 25 61 db b5
       -1.792686e-06 -1.7131853e-06 -1.6453765e-06 -1.6345044e-06
000020 0e 32 d9 b5 77 63 fa b5 9c a7 f8 b5 de fa f8 b5
       -1.6182328e-06 -1.86554e-06 -1.8526221e-06 -1.8550452e-06
000030 65 d9 00 b6 36 32 f6 b5 87 86 f2 b5 89 5f ec b5
       -1.9200027e-06 -1.8343042e-06 -1.8069558e-06 -1.7611175e-06
000040 d4 7c df b5 33 a6 f2 b5 3b 97 40 b6 8f 59 45 b6
       -1.6651124e-06 -1.8078775e-06 -2.8698257e-06 -2.9407418e-06
000050 49 6d 3d b6 7a 7e 42 b6 c1 56 41 b6 60 9d 39 b6
       -2.8226807e-06 -2.8981872e-06 -2.8809739e-06 -2.7658753e-06
000060 5c 35 2a b6 66 8b 2c b6 62 77 2f b6 04 00 00 80
       -2.5363033e-06 -2.5711138e-06 -2.6146522e-06 -6e-45
000070 04 00 00 80 04 00 00 80 04 00 00 80 04 00 00 00
       -6e-45 -6e-45 -6e-45 6e-45
000080 fe e6 00 80 04 00 00 80 04 00 00 80 04 00 00 00
       -8.2864e-41 -6e-45 -6e-45 6e-45
000090 df fa 2e 3a 28 e1 70 3a 79 4a 90 3a 90 2a 75 3a
       0.0006674956 0.00091888243 0.0011008523 0.00093523506
0000a0 57 88 8d 3a 1b bb 99 3a 7f f2 9b 3a 53 c5 ad 3a
       0.0010798079 0.0011728735 0.0011897831 0.001325766
0000b0 3b 4a 95 3a 77 e6 4f 3a a8 a1 54 3a 75 81 8c 3a
       0.001138992 0.0007930765 0.0008111247 0.0010719734
0000c0 38 d3 72 3a 23 2a 8d 3a 83 c1 ab 3a 69 2b 8b 3a
       0.00092630414 0.0010770004 0.0013103936 0.0010617796
0000d0 61 10 a8 3a f7 43 c6 3a 5c 3d 57 3a 7c 90 48 3a
       0.0012822264 0.0015126456 0.00082107424 0.00076509244
0000e0 c8 f4 c3 3a ad 79 ae 3a d2 b5 9f 3a 0c 7c cf 3a
       0.001495027 0.0013311409 0.0012184924 0.0015829816
0000f0 87 f3 e3 3a 67 04 1c 3b 26 b9 22 3b 9f 02 3c 39
       0.0017391302 0.0023806335 0.0024829595 0.00017930054
000100 b7 92 b3 38 3b f5 13 39 68 f5 a8 39 24 6a 07 3a
       8.562713e-05 0.00014110368 0.000322263 0.00051656575
000110 63 d7 94 39 e5 24 ab b8 d2 bc d1 38 2b 86 b1 39
       0.00028389235 -8.1607875e-05 0.00010001067 0.00033860034
000120 40 bc dd b9 99 c6 9e b9 b5 05 a8 b9 5c f0 a6 b9
       -0.00042292662 -0.00030284075 -0.0003204771 -0.0003184107
000130 1a 0d 82 b9 b9 10 5e b9 29 55 a4 b9 8a 94 7b b9
       -0.00024805294 -0.000211778 -0.00031343967 -0.0002399256
000140 65 ad 30 b9 cb 48 0f ba 6b 50 bb b9 44 6f 0b ba
       -0.00016849262 -0.0005465864 -0.00035727335 -0.0005319009
000150 e8 fc 95 b9 ba ad 80 b9 0e 8d fc b9 4e 72 d1 b9
       -0.00028607924 -0.000245435 -0.0004817028 -0.0003994875
000160 94 63 5a b9 17 cf 4d b9 58 95 a2 ba e5 ca b6 ba
       -0.00020827196 -0.0001962747 -0.0012404127 -0.0013945965
000170 fc 55 a7 ba b2 da 9e ba f9 c1 b1 ba 20 20 95 ba
       -0.0012766714 -0.001211962 -0.0013561837 -0.0011377372
000180 a5 20 a1 ba c7 8d a5 ba 9d 2c 86 ba 5a be 99 b8
       -0.0012293054 -0.0012630754 -0.0010236684 -7.331064e-05
000190 0f 84 2b b9 c5 ef c1 b8 7f 63 29 b8 25 1a 44 37
       -0.00016357026 -9.247618e-05 -4.0385403e-05 1.1688598e-05
0001a0 d1 1d 74 b8 ad c3 cf b8 e4 ae 0b b9 c8 2d 69 38
       -5.8201902e-05 -9.9069766e-05 -0.00013321225 5.5594166e-05
0001b0 03 cb 91 b9 b3 f5 25 b9 b3 2d 61 b9 36 68 a5 b9
       -0.0002780781 -0.00015827156 -0.00021474696 -0.00031548896
0001c0 bc 88 9d b9 d1 aa 5e b9 44 8f 14 ba fd 85 aa b9
       -0.0003004725 -0.00021235204 -0.00056671 -0.00032524756
0001d0 c5 0a a3 b9 00 1f d9 38 f5 8f 6f 39 dd 5c c2 b8
       -0.00031097807 0.000103531405 0.00022846444 -9.267938e-05
0001e0 51 a3 34 b8 6a e4 10 b8 86 cf 2e b9 d9 8b cb b9
       -4.3067444e-05 -3.4545003e-05 -0.00016671242 -0.00038823372
0001f0 7e 54 9e b7 04 2b 6b b9 48 31 90 3a 30 33 0d 3a
       -1.8874412e-05 -0.00022427371 0.0011001015 0.00053863507
000200 8e d3 df 39 f7 90 58 3a ff bd 5c 39 cb c5 cb b8
       0.00042691495 0.00082613475 0.00021051614 -9.716636e-05
000210 d7 51 1a 38 b1 90 48 b9 7f 1e 1f b9 14 14 b3 b9
       3.679268e-05 -0.00019127388 -0.00015174782 -0.000341565
000220 f0 e3 a8 b9 26 55 85 b9 ff f8 61 b9 26 a6 0d 39
       -0.00032213284 -0.00025431177 -0.0002155043 0.00013508703
000230 93 52 81 b8 92 e5 d0 37 a6 68 9f b9 97 59 1d b8
       -6.16658e-05 2.4902434e-05 -0.00030404812 -3.7515154e-05
000240 78 98 84 ba c0 ad 87 ba af 15 5f ba 74 9f 71 ba
       -0.001011624 -0.0010351464 -0.0008510006 -0.0009217181
000250 f4 a1 7a ba 7a ff 3f ba 3a 70 88 ba a2 5a 81 ba
       -0.0009560876 -0.0007324141 -0.0010409423 -0.000986893
000260 06 38 54 ba 08 a2 64 ba 03 88 4c ba d9 0d 67 ba
       -0.00080955063 -0.00087216543 -0.000780225 -0.0008814014
000270 8d 04 47 ba c8 37 4e ba 66 f7 34 ba f1 60 93 ba
       -0.00075919257 -0.00078665884 -0.00069033203 -0.0011244101
000280 24 20 42 ba df 17 55 ba 00 5a 75 ba 33 24 af ba
       -0.0007405302 -0.0008128862 -0.00093594193 -0.0013362229
000290 64 31 2e ba aa 31 e2 b9 e7 75 f2 b9 3c ae 76 38
       -0.0006644933 -0.00043143082 -0.0004624568 5.881324e-05
0002a0 aa a4 36 ba 14 5b 51 ba a9 dd a8 b8 d8 f7 88 38
       -0.0006967286 -0.0007986289 -8.052152e-05 6.53115e-05
0002b0 9b db 33 b9 ac 4a 7d b9 44 1e 22 b9 a5 53 ff 37
       -0.0001715258 -0.00024155778 -0.00015460799 3.0437319e-05
0002c0 c7 48 27 b9 04 b2 87 b8 cd 26 43 b9 6d 72 cd b8
       -0.00015953473 -6.4704596e-05 -0.00018611104 -9.796475e-05
0002d0 63 db ae ba 2c f2 87 ba 50 ee 5c ba 0c 96 80 ba
       -0.0013340529 -0.0010371855 -0.00084278453 -0.0009810342
0002e0 50 0e 3a ba 78 62 37 ba 03 2f 72 ba 59 84 05 ba
       -0.00070974696 -0.0006995569 -0.00092385727 -0.00050932687
0002f0 5f 80 9f b9 6b a4 b1 ba 0a 25 bd ba e3 9a b4 ba
       -0.00030422487 -0.0013553029 -0.0014430594 -0.001377907
000300 eb 5e 75 ba c9 ce 95 ba 52 70 8f ba 23 04 9b ba
       -0.0009360152 -0.0011429425 -0.0010943508 -0.0011826794
000310 28 3e 8a ba 10 d7 28 ba 33 07 26 bb 5e d0 40 bb
       -0.0010547088 -0.0006440738 -0.002533388 -0.0029421072
000320 0c 5d 1c bb a5 98 39 bb f4 cb 20 bb e8 53 19 bb
       -0.0023859171 -0.0028319743 -0.0024535628 -0.002339596
000330 06 0f 25 bb 16 57 09 bb ee fc 88 ba 16 1b 53 b9
       -0.0025185957 -0.0020956448 -0.0010451355 -0.00020132618
000340 05 6c f4 b9 43 9b 2a ba 1d 4c 06 b8 6e df a2 38
       -0.00046619787 -0.0006508121 -3.2018976e-05 7.766379e-05
000350 db 70 70 b8 e5 ac 5b b9 4e 6d 6e b9 db b4 09 ba
       -5.7325564e-05 -0.00020949876 -0.00022738168 -0.0005253085
000360 94 33 6b b9 b4 fe 8f b9 cb ab f7 b8 a8 65 57 b9
       -0.00022430561 -0.00027464854 -0.00011809877 -0.00020541868
000370 03 54 96 b8 4b 0f c2 b8 36 3c 25 b8 bb 77 02 b9
       -7.168206e-05 -9.2534894e-05 -3.939514e-05 -0.00012442369
000380 93 85 25 37 21 7f 9a b9 f5 95 f3 b9 6d 83 5c b9
       9.865867e-06 -0.00029467887 -0.00046460298 -0.00021029795
000390 49 e3 f7 b7 c4 45 88 b9 06 6e 5c b8 53 40 4f b9
       -2.9550532e-05 -0.0002599192 -5.2554555e-05 -0.00019765021
0003a0 b2 2b d6 b9 8b f2 22 39 8b 9d 9b ba 16 19 2e ba
       -0.00040849816 0.00015539878 -0.0011872513 -0.00066413113
0003b0 e6 28 7b ba 2c ae 7b ba 17 75 69 ba 0f 0c 0b ba
       -0.00095809845 -0.0009600844 -0.00089056924 -0.0005304226
0003c0 18 28 cc b9 32 d5 b1 b9 e7 45 95 b9 9a 14 90 b8
       -0.00038939784 -0.00033918914 -0.00028471576 -6.8702924e-05
0003d0 43 3b 09 39 5e e9 ef 38 87 f5 a1 38 5d f1 3c b9
       0.00013087415 0.00011439876 7.722811e-05 -0.00018018992
0003e0 78 49 9f b8 56 ad 5b b9 17 64 9b 39 ea 86 e7 b8
       -7.5953954e-05 -0.0002095004 0.00029638477 -0.00011040068
0003f0 0f 06 33 39 2f 12 8c b9 b5 8a 87 b9 b2 43 66 39
       0.00017073027 -0.0002671643 -0.0002585255 0.00021959728
